watermark/ltw/selective_network_epoch0_step2000.pth (torch, 825016 bytes, 7 tensors)

fc1.weight f4 [256, 768]
00000000: 2c53 e0ba 1e8c aa3a c636 b33a b49e 9b3a
00000010: 36b4 b8b9 47f7 87bb e1e0 b4b8 7906 c538
00000020: 6fd0 f3ba 445d deba 317a 9dba 80d9 a7bc
00000030: 0568 3739 1bbf 06ba 30e9 043b 89c1 143a
00000040: 5e83 29ba d218 d239 494c aab8 5d70 c339
00000050: 09e0 083b 73a1 a2b9 5185 b7ba 050f 8f39
00000060: 0939 233a 071f 47b8 1a04 7dba 4c2a bc3a
00000070: f829 c43a 1e3d 10ba 12c4 8cba 0da1 f43a
00000080: a986 643a f510 cc37 e7f1 fd39 e019 00bb
00000090: 7637 8c3a a493 e6b9 758c 123b 015a 823a
000000a0: dcf3 e839 656f b4b8 2532 22ba 706d 4939
000000b0: 369f 163b 846a 8db9 8e03 07bb 98a3 3539
000000c0: b66b 8f39 f59a c3ba 51e0 d039 dbfb e23b
000000d0: 7f79 8139 aa71 ccba 1d62 d93a cee8 203a
000000e0: 55a4 a839 b867 d13a a16d 38bb 69b8 b33a
000000f0: d7e5 b0b9 9110 05ba 484a 23bb c1f2 3f3a
00000100: 2a63 48bb 639a cd39 d408 65ba ebe8 1e3a
00000110: 505b b4b8 a492 5e3a 1da0 d839 2cd8 d6b8
00000120: 90d2 6439 93dc d03a ac17 1939 96a0 50ba
00000130: 654b 05bb cf37 45ba 77a1 de3a 24eb b8ba
00000140: 390b 43bb 1bfd 63ba dbe9 f33a 5243 faba
00000150: 1e1b 14b9 da0e 4f3a 04bb 51bb 2134 86ba
00000160: 24a5 de3a e2a5 a9ba 568d 283a 07cd 1c3a
00000170: 9e34 b739 728a ec39 a0df 14ba b5fe 67ba
00000180: f2e0 ff3a e272 493a c5f1 ed3a 5f72 efba
00000190: 6fa3 853a cf11 aeba a909 c83a 1f12 ff3a
000001a0: f179 c0ba 1500 5fba 56d2 f6ba 23b5 a437
000001b0: cfac 3dba 57d4 513a 57a8 2ebb ca6a b6b9
000001c0: 7321 833a 9ee5 363a 0ca6 ebb9 1ec4 98ba
000001d0: 4c1a 5ab9 0eae 10b9 ebd3 8839 b0cc 2aba
000001e0: 86e4 203a 1b99 8b3a 38bc 39ba 1748 413a
000001f0: fed9 22ba ebf7 673a c2b9 86ba 00f0 60ba
00000200: eb75 b3b9 c3bb 2bbb 67ff c7bb ed6d bdba
00000210: 14da 72b9 4e71 003b e5fd 86b8 a500 ea3a
00000220: b470 d3b7 4e3d 00bb fc3f 4439 a8fa 80ba
00000230: 47af c539 6bf4 dd3b e5b7 7dba c856 b43a
00000240: d622 143a 4490 5aba 3019 77ba 57b0 de39
00000250: c79e e3ba 40fd 3bba 9641 9abb 6ab2 d139
00000260: 1bf3 06bb 8469 d2b9 ba74 853a 6200 1d3b
00000270: d69e dd3a ff80 cbba 94ea a2b8 21d2 45ba
00000280: 67cf f93a 71f8 d3ba fbf7 0c3b 2bc7 c139
00000290: 0cdf aaba 13f1 7e39 f334 9fbb fc1a 2f37
000002a0: 339b d1ba 153b f83a e122 deba 0cb0 613a
000002b0: 9aef b8b9 462c bcba 2f67 6639 a278 843a
000002c0: 2474 933a caba 063b 42fb d13a a600 1239
000002d0: c1f4 dbb9 29ec b8ba 8d56 0639 c110 93ba
000002e0: bbdd 2fba acf6 b638 9dea de3a 7d92 1fba
000002f0: a2a3 ab39 32e2 c43a 32df 14bb 4b11 273a
00000300: 06ce 733b 88fc 0a3b aada 09bb 0a86 a43a
00000310: 8e28 d23a 8814 683a dcdc 9fba 9678 ae38
00000320: 506d 5e3a e101 4e39 9b14 cab9 7b6b b139
00000330: 5b5b 4dbb 63e9 65ba 322d 0cbb c5ac 81b9
00000340: 8e86 983a aa70 093b bd20 25ba 8933 b73a
00000350: f8b5 feb9 4e94 a438 1c24 a3b9 6e88 903a
00000360: 8d80 0abb 2c4b 22bb ecdd 27ba a493 eb3a
00000370: d90e daba 4b82 7139 3f7e edba 84f9 c139
00000380: d15a 7139 b854 d0ba 8fce 14bb 58a0 64ba
00000390: c3b8 9cba 15cb 91ba 151a 11bb 2cf0 263a
000003a0: b996 0f3a e879 1dbb c6ad c0bb 7c75 933a
000003b0: 1b53 5ab6 7fa3 31ba 3e86 b7b9 a693 8dba
000003c0: d176 0c3a c527 ea3a 8096 553a fb19 89bb
000003d0: 9f43 a938 dbc1 6939 140e 063b 5d2c f8ba
000003e0: 7173 233c e6e7 dbba 59ea 38ba 3f2a 7839
000003f0: 60ed 233b 86ae 37bb fb09 9639 a991 5a3a
-0.0017114631 0.0013011729 0.001367294 0.0011872859 -0.00035229482 -0.004149351 -8.624956e-05 9.394898e-05
-0.0018601547 -0.0016965051 -0.0012014565 -0.020489454 0.0001749099 -0.0005140171 0.0020280592 0.0005674591
-0.00064664136 0.00040072814 -8.120441e-05 0.00037277016 0.0020885488 -0.00031019337 -0.0014001523 0.00027286276
0.00062264554 -4.7474194e-05 -0.0009651795 0.0014355867 0.0014966121 -0.0005502271 -0.0010739586 0.001866372
0.00087175757 2.4326591e-05 0.00048436152 -0.0019546673 0.0010697681 -0.0004397902 0.002236155 0.0009945036
0.00044432178 -8.603818e-05 -0.00061872817 0.00019209622 0.002298308 -0.00026972976 -0.0020601484 0.00017322449
0.00027355336 -0.00149235 0.0003983998 0.006926996 0.0002469532 -0.0015597839 0.0016585026 0.0006138206
0.00032165894 0.0015976345 -0.0028141516 0.0013711575 -0.0003374058 -0.0005076016 -0.0024916101 0.0007322245
-0.0030576685 0.00039215674 -0.0008736972 0.0006061929 -8.600077e-05 0.0008490479 0.00041318024 -0.0001024458
0.00021822215 0.0015934877 0.00014600036 -0.00079584995 -0.0020339128 -0.000752327 0.0016985376 -0.0014108163
-0.0029761328 -0.00086970784 0.0018609123 -0.0019093549 -0.00014124482 0.00078986364 -0.003200234 -0.0010238924
0.0016986472 -0.0012943114 0.0006429752 0.0005981479 0.00034943683 0.00045116578 -0.00056790747 -0.0008849905
0.0019521995 0.00076846604 0.0018153718 -0.0018268338 0.0010195802 -0.0013280454 0.0015261668 0.0019460357
-0.0014684779 -0.0008506787 -0.0018830996 1.9634672e-05 -0.00072355283 0.00080043584 -0.0026650631 -0.0003479331
0.0010004475 0.00069769647 -0.00044946407 -0.0011655127 -0.00020799896 -0.0001379775 0.00026097833 -0.0006515486
0.0006137568 0.0010650487 -0.0007085237 0.0007373108 -0.0006212293 0.00088488933 -0.0010278749 -0.00085806847
-0.00034229396 -0.0026204444 -0.0061034444 -0.0014452316 -0.00023160159 0.0019598785 -6.4369095e-05 0.0017852975
-2.5205642e-05 -0.001956779 0.00018715853 -0.0009840326 0.0003770536 0.0067735217 -0.00096785865 0.0013758773
0.0005650943 -0.00083375373 -0.00094260555 0.00042474523 -0.0017366045 -0.0007171221 -0.0047075255 0.00039996515
-0.002059168 -0.00040132937 0.0010181882 0.0023956527 0.0016908299 -0.0015526115 -7.7684555e-05 -0.0007546265
0.0019059003 -0.0016172064 0.0021510113 0.0003696022 -0.0013036444 0.00024313135 -0.004858607 1.0437096e-05
-0.0015991688 0.0018938506 -0.0016947651 0.0008609302 -0.00035273732 -0.0014356456 0.00021972948 0.0010106752
0.0011249823 0.0020558112 0.0016020315 0.00013923887 -0.0004195329 -0.0014108467 0.00012811479 -0.0011220203
-0.00067087606 8.7243825e-05 0.0017007176 -0.0006087197 0.00032737578 0.0015021025 -0.0022716043 0.0006373121
0.0037201657 0.002120765 -0.0021034875 0.0012552154 0.0016033815 0.0008853157 -0.0012196559 8.3194274e-05
0.0008484917 0.00019646391 -0.00038543795 0.0003384015 -0.003133497 -0.0008770434 -0.0021389243 -0.0002473352
0.001163678 0.0020971694 -0.0006299129 0.0013977151 -0.00048582233 7.847753e-05 -0.00031116686 0.0011026987
-0.002113375 -0.0024764044 -0.00064036134 0.0017973077 -0.0016636505 0.00023032089 -0.0018119289 0.00036997732
0.00023017383 -0.0015894389 -0.0022706126 -0.0008721403 -0.0011956919 -0.0011123145 -0.002214079 0.0006368186
0.00054774765 -0.002402896 -0.0058800904 0.0011250223 -3.2532905e-06 -0.0006776377 -0.00035004498 -0.0010801449
0.0005358281 0.0017864635 0.00081477314 -0.0041840053 8.0711434e-05 0.00022292828 0.0020455169 -0.001893412
0.009976254 -0.0016777485 -0.00070539635 0.00023666861 0.0025013313 -0.0028027608 0.00028617666 0.0008337745

fc1.bias f4 [256]
00000000: 5aa3 7a3d d3f5 133a 0ab9 463d 3ac1 26bb
00000010: bdb5 a73d 17ed af3a 6531 533d ad75 8a3d
00000020: 1dde e13d 6a9d 90bb c21a 583d 03b7 2db9
00000030: 0813 f13c a896 273d 6980 313d af65 e53d
00000040: d94a 7f3d 96ba 39bb 6845 293d 998a 653d
00000050: e0e9 b53d 9592 e43b c6c1 8d3d 6d59 3fbb
00000060: 5b4d d33d 63d0 d5b9 544c 6c3d 934f c23d
00000070: 2414 9c3c 0e02 883d 08e3 d83b 49ab 993d
00000080: 831f e73d 2b6d e6b9 fb00 37bb 7483 573c
00000090: 1b6b c3b9 5e75 bd3d 8ef3 983d 95a2 07bc
000000a0: 1208 283b 63f2 073e 2a00 913b ed1b ad3b
000000b0: ef02 ea39 5374 823b 6b2c bd3d 9a96 a53d
000000c0: 4107 ce3c a83e 053e 2020 9b3d e766 953d
000000d0: 39ae 333d 7ca3 413d 0742 5e3c 6b32 9d3d
000000e0: d300 243d b33a 57ba 3a8a e4b9 0d57 9d3d
000000f0: 5799 dd38 bf0f c63d 87be a63d 9960 853d
00000100: 6bea a73d 3421 7f3d 47b0 db3c 225b 923d
00000110: 791d b4bb d4e7 7b3b f4a4 823d 812c c93c
00000120: 0d66 07bb 4470 353d 09bd ab3d 17fa c63c
00000130: 990f 963d 73d0 7cba 66a1 d23a c679 543d
00000140: ac79 8c3c ab8f c23d 7a6c 1b3c 17ad 9f3d
00000150: 2031 c83d 2d54 553b 39e6 b83d 3b28 e83d
00000160: 1bb1 0b3e 226e 123d 646e dcba fab5 333d
00000170: c4e0 8c3d 8958 173d 7ad7 0e3d 7deb 983d
00000180: 201d 683c 3c27 d63c 5e17 283d 16d3 d93d
00000190: 5440 8e3d a0d7 e63d f10a 763d 2e77 9abb
000001a0: 533e 503d bff3 863b deb6 033d e168 7f3b
000001b0: 0705 c83a e741 093d 84b9 103d 7194 373d
000001c0: aa0f ac3d 231a ab3c a4b3 6ebb 3496 9b3d
000001d0: 4633 8d3d 83c9 9f3b 498e ccba 2b66 6bbb
000001e0: 5b12 eb3d af66 a03c efe4 db3c 061d 9a3c
000001f0: 5e48 da3c c490 213d 2469 a1bb 2ec1 6539
00000200: 5af9 653c b2d8 183d 43af de3d 0487 a4bb
00000210: a7ad 0839 19c2 e23d 38c3 c53a d7d1 b93d
00000220: 5d4a a13b a19b bd3d 04fa 263d 77ee 4abb
00000230: e3e1 0b3d e545 bb3d be53 be3d 0bba f53c
00000240: 3910 d53d 7ec6 0b3d 0bf1 243c 6b25 373d
00000250: 8a09 573d a21a fd3c 2226 923c 4887 05bc
00000260: 1915 8e3d bc8d 803d ea0f 4ebb dc37 483d
00000270: 5605 863d f3bc 95bb 0adb 9c3c e803 873a
00000280: 3f76 7c3d 5e82 db3d b6d1 16ba 55ba 9f3d
00000290: 4c7c 4e3c a5ed 753d c860 0b3d 2831 5d3d
000002a0: d63d 143d ad8f 0d3c e7b7 b83d 53cb 953c
000002b0: bcad 8d3d ede3 b33b 11e2 e03d 74d4 853d
000002c0: 2c49 b83d b2e1 993c 7fcf ce3d 94f4 91ba
000002d0: 1ada 833d d34f 023e fe2a b23d 83ac 54bb
000002e0: 549a f23c c759 c83b fa3c 803b 61b1 8b3d
000002f0: f105 633d ea96 1bbb b1ff 3b3d 5f7b 6b39
00000300: 684f 1e3c d21f 613d 5996 ee3d 6fcb a23d
00000310: 3401 b6bb d873 9c3d 6dab 863d 9940 2a3d
00000320: 1cc5 5f3d 7104 943d 4083 183d 81ca 873d
00000330: b843 ff3c d5b5 863d 5684 0f3a 81f3 853d
00000340: 8e93 e63c 1c8d 04bc 0ffe ed3a f5a4 173d
00000350: 2a9b 213d 3815 f7ba b304 e03a 795b c43c
00000360: 6837 633c bd73 953d a370 89ba 6be5 413d
00000370: 7ab9 9d3d 3ea9 643d d2cc 813d 1db7 6d3a
00000380: b78b 3c3c a974 c03b afce 933c 5b05 27ba
00000390: e512 bc3d a766 753d 911e 993d 01c0 a23b
000003a0: 5049 ab3b a497 b03d 9ddf c03d 65a4 b93d
000003b0: 30ed 793d 035e 8a3d 1662 50bb f8c6 c43c
000003c0: d086 293d dc5b 583c 4728 7d3d 6386 253d
000003d0: 69d2 30bb 81ea c53c ca6a fb3d 4038 2d3d
000003e0: ef8b b13b 9d92 463d 1d33 a8bb 5e57 413d
000003f0: 94b0 123c dbc6 f73c dbba ab3c c54a 053e
0.06119094 0.00056442356 0.04851631 -0.0025444762 0.08188961 0.0013422099 0.05156078 0.06760726
0.11028693 -0.0044132965 0.052759893 -0.00016566743 0.02942802 0.04091516 0.043335352 0.11201035
0.06232724 -0.0028339974 0.041325957 0.05604038 0.08882499 0.0069754818 0.06921725 -0.002919759
0.10317489 -0.00040781786 0.05768998 0.09487834 0.019052573 0.06641017 0.006618861 0.07503373
0.11285307 -0.00043950355 -0.0027924168 0.013153899 -0.00037273098 0.09250902 0.07468329 -0.008278509
0.0025639576 0.13276057 0.0044250684 0.00528287 0.00044634144 0.003981152 0.09236988 0.080853656
0.025149943 0.13012183 0.07574487 0.07295018 0.043867324 0.04727505 0.013565547 0.07675632
0.04003985 -0.0008210346 -0.00043590536 0.07682619 0.00010566663 0.09670972 0.08141809 0.06512565
0.081990086 0.062287524 0.026817454 0.071462885 -0.0054966775 0.003843774 0.063791186 0.024557354
-0.0020660192 0.044296518 0.08385665 0.024289174 0.07327194 -0.00096440985 0.0016069829 0.051873945
0.017147861 0.09500059 0.009486312 0.07796686 0.09774995 0.0032551393 0.090282865 0.11335798
0.13641779 0.035749562 -0.0016817567 0.04387472 0.06878808 0.036949668 0.034873463 0.07466791
0.0141671 0.026141755 0.04103791 0.106359646 0.06945863 0.11271596 0.06006903 -0.0047139144
0.050840687 0.0041184123 0.032156818 0.0038972425 0.0015260287 0.033510115 0.03533317 0.0448193
0.08401425 0.020886486 -0.0036422992 0.07597008 0.06894545 0.004876317 -0.0015606369 -0.003591905
0.114781104 0.019580213 0.026842562 0.018812668 0.026645835 0.0394447 -0.004925864 0.00021911107
0.014036501 0.03731603 0.10873272 -0.005020978 0.00013034661 0.110721774 0.0015088087 0.09073227
0.004922195 0.092581995 0.040765777 -0.003096489 0.03415097 0.09144191 0.09293316 0.029995939
0.10403485 0.034124844 0.010067235 0.04471342 0.05249933 0.030896489 0.017840449 -0.008149929
0.06937618 0.06277034 -0.003144259 0.048881397 0.065439865 -0.0045696436 0.019147415 0.0010300847
0.061636206 0.10718225 -0.0005753295 0.07799212 0.012602877 0.06004109 0.034027845 0.054001957
0.036191784 0.008640212 0.090194516 0.01828543 0.06917903 0.0054898174 0.10980619 0.06534663
0.089983314 0.018784378 0.100981705 -0.0011135512 0.06438084 0.12725763 0.08699606 -0.0032451458
0.029614605 0.006114218 0.003913519 0.06820942 0.055425588 -0.0023741075 0.045898143 0.00022457306
0.009662487 0.054961987 0.1164977 0.07948958 -0.0055543426 0.07639283 0.065756656 0.04156551
0.054631338 0.0722741 0.037234545 0.066304214 0.03116022 0.065776505 0.00054747367 0.06540585
0.028146531 -0.008090284 0.001815738 0.03702255 0.039454617 -0.0018850928 0.0017091244 0.023969399
0.01386819 0.07297466 -0.0010485839 0.04733793 0.077013925 0.055825464 0.063378945 0.00090681185
0.01150792 0.005873282 0.01804289 -0.00063713425 0.09183291 0.05991235 0.07476533 0.0049667363
0.0052272454 0.08622673 0.09417651 0.09064559 0.061017215 0.067562126 -0.0031796745 0.024020657
0.041388333 0.013205495 0.06180599 0.040411364 -0.0026980883 0.024159672 0.12276228 0.042289972
0.0054182927 0.048479665 -0.0051330463 0.04720246 0.008953232 0.030246189 0.020963123 0.13016804

fc2.weight f4 [32, 256]
00000000: aba4 b43c 6dda 4cbc 238b 013d 5c7c 1bbd
00000010: ebde cf3c 178b 163b f0b7 803c 6259 d63c
00000020: 66b1 063d d8ce b439 425c a03c 9987 d33b
00000030: 0b9e 253c 3de6 d73c cee3 4c3c efd9 0a3d
00000040: 799f 963c 0aca c33a 04c7 573c bc6c 863c
00000050: 5782 d53c 2714 7b3b a3e3 8b3c 55f2 0e3a
00000060: 3b33 033d 86da e03b b44c 873c 0474 dc3c
00000070: 9cf1 d53b 92b2 ab3c c8ec 343b c2c9 bd3c
00000080: 8e69 153d 9833 643a d3e8 d639 c8a9 5c3c
00000090: f7b5 853b 1532 bb3c f0e4 ce3c b39e e8bd
000000a0: 6e04 21bc 03e3 1f3d 62ea 173b 19ea c6bc
000000b0: aad1 913a 8fcc 333b b07e e33c c1fc ca3c
000000c0: 0bb3 173c 85d0 1e3d 3c75 5a3c 953f de3c
000000d0: 2669 653c 4050 083d e410 973b d4e1 1a3c
000000e0: 885a d13c f63a a1ba 39c7 b83a 870e 9d3c
000000f0: 76cf f63a afff 013d afdc cd3c 0aad a33c
00000100: 746c c33c fcb5 9d3c d800 2a3c 7e0d c43c
00000110: 61d3 803a 5638 493b ff98 a73c 87ea 1e3c
00000120: 96f2 21bc fb09 6a3c 26c8 123a 56aa 1b3c
00000130: c874 ae3c 741b 4d3a 2eef d93a 1705 843c
00000140: dc11 eb3b c621 8b3d 8eb1 603b 0f14 863a
00000150: 3460 fa3c 9050 ee3a 517f dc3c a9ee 2e3d
00000160: 0b55 2d3d c6a3 3c3c 1de6 29bd 9db6 583c
00000170: b6f0 3f3d 0dd4 293c eabf 423c 640e bb3c
00000180: 3ef8 b23b b172 013c fe82 533c 0149 56bd
00000190: 6f36 b03d 6466 5a3d 0123 913c 3df0 8739
000001a0: 16f9 853c 5bd4 0f3b 61bf 213c 0af9 bf3a
000001b0: afa4 c63a 2a9b 333c 61bc 5d3c cb1c 4a3c
000001c0: a0c4 d53c 726e db3b ae21 62bc d86b b63c
000001d0: eaed 5e3d 26d3 5f3c b9d6 733a 36b7 a7bb
000001e0: 57cc 713d 419f c33b 39f2 133c b1ff c03b
000001f0: 5828 893b 3b00 4c3c 43c8 433a 1680 153c
00000200: 7d97 a73b 0678 233c 400f f63c 0d5a 153a
00000210: d768 15bc 0411 103d 123b e63a 9dd5 e33c
00000220: 299b 113b d22a ce3c fc2a 763c fa28 433a
00000230: e3f6 293c d014 f73c d2c1 eb3c 106d 193c
00000240: debc 73bd 86d4 1a3c 7acc 4f3b 90fa 633c
00000250: b8d3 8b3c 0a5d 3f3c df14 b13b 56d3 63bc
00000260: 8222 b13c 1ad8 9e3c aada 1d3c 6151 783c
00000270: d5dd 493c 0db7 103a 8d0c f23b 0203 ac3a
00000280: 9a30 7bbd a61f d83c d96c 423a 3074 cf3c
00000290: 5ed8 6b3b e72e a23c eed1 2a3c 5674 aa3c
000002a0: ab62 733a 055e 803b e8b9 e53c 5696 a53b
000002b0: e802 ae3c 7206 503b 4adc 083d 3cce bfbc
000002c0: 7007 de3c f163 a73b 53a0 f53c 36a6 a73a
000002d0: c0f8 af3c 595e 2b3d d130 d23c c9a6 403a
000002e0: 67c0 173c 3f76 3f3b 663c 2539 9ac6 963d
000002f0: 890f 293c 02a0 0f3a 17ca 563c 8da3 31bc
00000300: 26e1 713b 6877 893c eef5 113d e23c 23bd
00000310: 3332 b9b8 1640 c43c bf57 af3c 31bb 353b
00000320: a9d8 bc3c c467 b83c a1bc 4b3c 78db 9a3c
00000330: 7636 233c 50ad a73c caeb 603b c8d5 ba3c
00000340: c9d3 173c 8927 18bd e10f 1b3b 70fc 8f3b
00000350: ede1 633c f13a da39 ee2e eb3a 37ce 133c
00000360: 1aab b1bc 808d ad3c bb50 faba 2b10 6e3c
00000370: fad5 ba3c 6414 8d3c 19f6 a33c fcde 8b3a
00000380: 21d5 8f3b 7159 1d3b 905d ba3b a781 673a
00000390: 2496 e43c 7b66 863c 92f5 b93c 135b 113b
000003a0: 9764 0e3b 2e47 f03c 226a e23c 137a de3c
000003b0: 2154 a23c 4af9 a93c 5b5c a139 4a3d 263c
000003c0: 90cf 413c 677c 783b ebd6 993c 6ce3 4ebd
000003d0: 7892 8839 2d5b 293c 9368 97bb c14a 7f3c
000003e0: 9ac8 233c 40f3 603c c71d cbba 0c19 7a3c
000003f0: 93e2 2f3b 2728 153c e9c3 f23b 6005 3f3d
0.022051176 -0.012503249 0.03162683 -0.037960395 0.02537485 0.0022971088 0.015712708 0.026165668
0.032884024 0.00034486386 0.019575242 0.0064553735 0.010108481 0.026354903 0.012505485 0.033899244
0.01838659 0.0014937532 0.013170008 0.01640927 0.026063127 0.0038311572 0.01707632 0.00054529804
0.03203128 0.0068619875 0.016516067 0.02691079 0.006529046 0.020959172 0.0027606953 0.023167495
0.036477618 0.0008705198 0.00040990728 0.013468213 0.00408053 0.02285103 0.02525565 -0.113583945
-0.009827716 0.039034855 0.0023180475 -0.024281548 0.0011125107 0.002743516 0.02777037 0.024778726
0.009258996 0.03877308 0.013333615 0.027129928 0.01400212 0.033279657 0.004610168 0.009453256
0.025555864 -0.0012300897 0.0014097459 0.019171966 0.0018830139 0.03173798 0.025129644 0.019979972
0.023855425 0.019251816 0.010376178 0.023932215 0.0009828621 0.0030703745 0.020458696 0.00969947
-0.009884497 0.014284606 0.00055992824 0.0095010605 0.02129592 0.000782422 0.0016627067 0.016115708
0.00717376 0.06793551 0.0034285518 0.0010229367 0.030563451 0.0018181968 0.026916178 0.042708073
0.04231743 0.011513656 -0.04147922 0.013227132 0.04686042 0.010365498 0.011886576 0.02283401
0.0054617217 0.00790088 0.012909649 -0.052315716 0.086041324 0.053320304 0.017716886 0.00025928198
0.016354125 0.0021946642 0.009872288 0.0014646363 0.0015155281 0.010962287 0.013533683 0.012335966
0.026094735 0.0066965157 -0.013801975 0.02226822 0.05442611 0.013661182 0.00093017105 -0.005118276
0.059032764 0.0059699123 0.009029918 0.005889856 0.0041857176 0.012451227 0.0007468501 0.009124776
0.0051144944 0.009977346 0.030036569 0.00056973175 -0.009119234 0.035172477 0.0017565212 0.02781182
0.0022217727 0.025166903 0.015024897 0.00074447657 0.010373804 0.030161291 0.028778944 0.009364381
-0.05950629 0.009450084 0.003170757 0.013914719 0.017068729 0.011679897 0.0054040994 -0.013905367
0.0216229 0.019390155 0.009634653 0.015156121 0.012320955 0.0005520441 0.00738675 0.0013123455
-0.061325647 0.026382279 0.0007416732 0.025323957 0.003598712 0.019797755 0.010426028 0.020807426
0.0009284417 0.003917458 0.028042749 0.005053322 0.02124162 0.0031742123 0.03341321 -0.02341377
0.027103156 0.0051083495 0.029983675 0.0012790624 0.021480918 0.041838024 0.025658043 0.00073490717
0.009262181 0.0029214767 0.00015758126 0.07362099 0.010318645 0.000547886 0.013109705 -0.010842216
0.003690788 0.01678057 0.035634927 -0.039852984 -8.830838e-05 0.02395634 0.021404145 0.0027729983
0.02305253 0.022510417 0.012435109 0.018903479 0.009961715 0.020468384 0.0034320229 0.022807017
0.009266802 -0.03714708 0.0023660588 0.0043941066 0.013908845 0.00041624115 0.0017943063 0.009021333
-0.021688033 0.021185637 -0.0019097546 0.014530222 0.02280711 0.017221637 0.02001481 0.0010671313
0.0043894206 0.002400961 0.005687423 0.00088312704 0.027903624 0.016406288 0.022700105 0.0022179529
0.0021727437 0.029330816 0.027638499 0.027157819 0.019815506 0.020748753 0.00030777123 0.010146448
0.011829272 0.0037915946 0.018779239 -0.050509855 0.0002604907 0.010336679 -0.0046206205 0.015581788
0.009996558 0.01372987 -0.0015496545 0.015264761 0.002683793 0.009103811 0.007408608 0.046635985

fc2.bias f4 [32]
00000000: aae1 0d3e 90a0 af3d fa07 ffbc 7e3f 043e
00000010: 96cb a63d 9504 6137 f1fa 063e 4090 463e
00000020: dca0 173e 0742 76ba d038 f53d 3c4d b23d
00000030: 7b2c 023e f5d4 173e 3394 2f38 0b02 8ab7
00000040: 0acf e13d a5fd 1ebb 9069 383e 70a0 5fbb
00000050: f5e1 313d 33c2 3dbb d7ff db3d caac f8ba
00000060: b678 f63d dadd dfbc 4e01 89bb a864 4abc
00000070: 7ddd 3c3a 0a2b 373e 59cc 033e f3b0 de3d
0.13855615 0.08575547 -0.031131733 0.12914845 0.081443 1.3412112e-05 0.13181664 0.19390965
0.14807457 -0.0009393994 0.11973727 0.087061375 0.1271228 0.1482733 4.1861273e-05 -1.6451833e-05
0.11025818 -0.002426007 0.18009019 -0.0034122728 0.04342838 -0.0028954863 0.10742157 -0.0018972394
0.120347425 -0.027327467 -0.0041810637 -0.0123531 0.0007204635 0.17887512 0.12870921 0.10873594

fc3.weight f4 [8, 34]
00000000: 0098 cfbd 12cf 84bb e632 17ba 474f a33e
00000010: 338e b0ba 9fdc 14b6 fca4 d4bd 6a05 893e
00000020: 64c7 033d 7817 fc3d cc7b 9cbb 211f 20bb
00000030: ef85 1bbb ed7b 28be a3d2 0436 5929 acbc
00000040: 5dd5 dbbd 5ed1 3f3d d52c d3bc c94d 703d
00000050: ee2d 9ebd 17f6 29bd 5ae4 25bc 9817 353b
00000060: c628 f63d f945 a4bc 4be8 a23d 9acb 38be
00000070: c0ba 903e 0c8b 11bc 8e52 24be 377a 12bc
00000080: f87a 893c a54d cd3e a6b1 df3c 110b 0e3e
00000090: b19a eb3b ace6 81bc 262a 343e 69d0 9dbd
000000a0: 43c4 0f3e 0bdc b33d 6e2f 343d df01 94bd
000000b0: 68d8 063d d8d1 1b3d 81ee 6a3d a1f9 de3d
000000c0: 21f6 95bd d9d9 5cbd 3551 ff3d 8a90 8e3d
000000d0: 9e63 1c3e 985e 1bbd 9426 a23d 8b5c 30b8
000000e0: f3ce aa3e cc33 8bbc 5650 1a3d 4b60 8ebc
000000f0: 65d7 0bbe dca6 ce3b c3b3 a5bd 8c11 be3e
00000100: a736 523e 1976 813e a4b5 fe3e 90f5 02be
00000110: a960 873d e0cd 5cba 921c 1bb7 a809 babb
00000120: 124e fb3e 7922 03bd c1fb b5ba a221 82be
00000130: 4221 13bb 169f 61be 65f7 7fbe 5923 64bd
00000140: 0960 8e3b d3b9 b2bd 1f66 94ba a721 df34
00000150: 5914 243c 758f 40b9 ef98 673e fa4b 213e
00000160: 20c2 543d 86f5 49be 33b5 c6ba 79dd 60bd
00000170: 3211 46ba 5539 1fbd faa7 2132 5a94 e3bc
00000180: 05eb 73be 883e 9fbe 7e02 f63c 0516 6ebe
00000190: aa70 813d 6d46 84ba 6838 26bd 65c0 3a3c
000001a0: a37b 1f3b 2669 2b3c b392 68bd 1faf 78b7
000001b0: ce03 99be 68c0 85be 80cc a83c 75ec 5b3e
000001c0: 14fa 573d c2db 903d 4672 1e3e 9ef5 82be
000001d0: c329 9f3e 87a8 f5b6 1460 b93c bc2d a4b5
000001e0: f39a a03d da8e 3f3d 15e1 b13d 8230 4fb9
000001f0: d727 80bc 8c2b 25b6 2629 273e eca8 0fbe
00000200: ee78 b03d 0967 ad39 44fd 043e b297 b53c
00000210: 16a5 7e3e aff0 bc3c e4b7 5c3e 6248 a13d
00000220: 5407 c33e e0b9 5f3e 53ad 92bd 4fd2 093e
00000230: acb2 703e bd02 783c 5f41 a33d f3da 853e
00000240: 7c58 e03d 4b7d 68be 97fb 073e 4554 e43d
00000250: 4b03 ea3d 64df fc3d af97 14b9 6fa3 03bb
00000260: 9433 4c3e da4a dabd 4668 123e 563a ae38
00000270: fffe 33bd fa0c caba ed65 743e 206d 4db9
00000280: 5ed7 033e 0641 4ebe f24d a2be b6d6 a8be
00000290: afea 57be d7ce 633e 4122 8c3e 9438 c03d
000002a0: 871b f5be 1a1d 263e 2b24 dbbb f118 dfbd
000002b0: 1387 2ab8 6ad9 b3bb b60f 88bb cc6d be3c
000002c0: 6515 16bc 1c8e 17bc f2b5 1fbc 837c ef36
000002d0: 6c69 aa3d 8e6c 6cbb a9eb cd3d 780d dcbb
000002e0: 847e 61bc 2fee 43bd 216d 13bc 2bc3 ae3d
000002f0: 3e96 30bc 8c17 e5bc 8347 8fbb cf93 573c
00000300: 49d0 54be 0896 663d 8f98 453e e0d9 06be
00000310: 3437 3d3e 9538 943d a76d c7be c68e 8b3d
00000320: 0eb4 443e 3e85 24bc c0ad dabc 29c7 1cbe
00000330: f81b cebc 5eac bdbe 4234 2fbd 6eea 69be
00000340: 7603 293c cb23 6dbd e240 1bbe 35fc 45ba
00000350: eb91 273c c32c 703d e14e 46bc 2334 c5b9
00000360: c100 dbbd 83c1 f63d 8ab1 59bb db16 f0bc
00000370: 11d4 34bd 6ebb 89be ac12 833e 1d77 633c
00000380: a4a3 b5b9 ea43 d434 7680 d0bd eb62 7e33
00000390: 329e 00bb a7dc 89bd 4e5b 9cbe 8e4d 04b7
000003a0: e60a 3c37 a854 73ba 785a 63ba 29fe eabd
000003b0: 778f f23b b209 48be 33da 0e3e 4c92 abbc
000003c0: 3ffc 54bd 876c 2e3e 7d64 92bc 4dcd 5fbc
000003d0: d155 9e3e d9ef 983e 62c2 f73e ba73 34b9
000003e0: a97d 533e 4954 1b3e ba11 3a3e 1448 913e
000003f0: c491 1bb9 7d06 bab8 a0bc 4c3d 0b78 04bd
-0.101364136 -0.004053005 -0.00057677773 0.3189642 -0.0013470113 -2.2182137e-06 -0.10383031 0.26761943
0.032172576 0.12309164 -0.0047755 -0.0024432617 -0.0023730954 -0.16453524 1.979214e-06 -0.02101581
-0.10734055 0.046830527 -0.025778214 0.05866793 -0.07723604 -0.041494455 -0.010125244 0.0027632471
0.12019496 -0.020052897 0.079544626 -0.18046418 0.2826748 -0.008883249 -0.16047117 -0.008940271
0.016782269 0.400983 0.027306389 0.13871409 0.0071900715 -0.015857063 0.17594203 -0.07705767
0.14039712 0.08782204 0.043990545 -0.072269194 0.032921225 0.03804192 0.05735636 0.10887457
-0.07322336 -0.053918693 0.12466661 0.069611624 0.15272376 -0.03793201 0.079175144 -4.2047857e-05
0.33361015 -0.016992472 0.03767427 -0.0173799 -0.13656385 0.0063065123 -0.080909275 0.37122762
0.2052866 0.25285414 0.49747956 -0.12788987 0.06610233 -0.0008423012 -9.245372e-06 -0.0056774206
0.49083 -0.032015298 -0.0013884233 -0.25416285 -0.0022450243 -0.22033343 -0.24996717 -0.055697773
0.0043449444 -0.087268494 -0.0011321938 4.1561472e-07 0.010014617 -0.00018363989 0.22616933 0.15751639
0.051942945 -0.19722566 -0.0015160203 -0.054898713 -0.0007555663 -0.038873035 9.409627e-09 -0.0277807
-0.23820122 -0.31102395 0.030030485 -0.23250587 0.06320317 -0.0010091789 -0.040581137 0.0113984095
0.0024335168 0.010462081 -0.05678053 -1.48227255e-05 -0.29885715 -0.26123357 0.020605326 0.2147692
0.052728727 0.070731655 0.1547328 -0.25578016 0.3108655 -7.321188e-06 0.022628821 -1.2232263e-06
0.07842054 0.046767093 0.08685509 -0.00019759129 -0.015643997 -2.4612264e-06 0.1632429 -0.14029282
0.086168155 0.00033073899 0.12987238 0.02216706 0.24867663 0.023063986 0.21554524 0.07875134
0.38091528 0.2184825 -0.07161965 0.13459133 0.23505658 0.015137372 0.07971453 0.26143607
0.10954377 -0.22704045 0.13279568 0.11148886 0.11426409 0.12347296 -0.00014170886 -0.0020086428
0.1994155 -0.10658808 0.1429759 8.3078325e-05 -0.043944355 -0.0015415244 0.23867007 -0.00019590976
0.12875125 -0.20141992 -0.31700093 -0.3297631 -0.21085618 0.22246872 0.27369884 0.093857914
-0.47872564 0.16222039 -0.006687661 -0.10893429 -4.0656956e-05 -0.0054885643 -0.0041522635 0.023245715
-0.009160374 -0.00925019 -0.009747969 7.13725e-06 0.08320889 -0.0036075446 0.10054714 -0.006715473
-0.013763074 -0.04783457 -0.008998186 0.08533319 -0.010778008 -0.02796533 -0.0043725385 0.013157799
-0.2078258 0.056295425 0.19296478 -0.1316905 0.1847809 0.07237355 -0.38950846 0.06814341
0.1920931 -0.010041533 -0.026694179 -0.15310349 -0.02515982 -0.37045568 -0.042774446 -0.22843334
0.010315767 -0.057895463 -0.1516147 -0.00075525354 0.010227661 0.058636438 -0.012103767 -0.00037613613
-0.10693503 0.12048628 -0.0033217394 -0.029307773 -0.044147555 -0.2690081 0.25600183 0.013883379
-0.00034644932 3.953749e-07 -0.10180752 5.922895e-08 -0.0019625542 -0.06731539 -0.3053841 -7.88587e-06
1.1208211e-05 -0.0009282329 -0.00086728437 -0.114742585 0.0074023562 -0.19534948 0.13950424 -0.020943783
-0.051998373 0.17033587 -0.017870182 -0.013659787 0.30924848 0.2987049 0.4839049 -0.00017209249
0.20653404 0.15168871 0.18170825 0.28375304 -0.00014836254 -8.87038e-05 0.049984574 -0.032341044

fc3.bias f4 [8]
00000000: 6040 61bd 80c9 223d 7b76 dfbc 079d da3c
00000010: 119e f53d bcaa 81bc 4ad7 a13c a27e 8c3e
-0.054993033 0.039742947 -0.027278176 0.026686205 0.119930394 -0.015828483 0.019755978 0.27440363

fc4.weight f4 [1, 8]
00000000: c444 6dbc 4c16 c13e b0b1 a2bc 3590 f63d
00000010: 85e7 28bf c06c 7d3d e031 15bf 06c5 68bf
-0.014481727 0.37712324 -0.019860119 0.12039224 -0.6597827 0.06187129 -0.5827923 -0.90925634
